Assets/Models/pose_detector.onnx (onnx, 31716 bytes, 4 tensors)

StatefulPartitionedCall/sequential_33/dense_67/MatMul/ReadVariableOp:0 f4 [112, 9]
00000000: af76 f3be 6498 cc3d eeb5 df3d 4346 d7be
00000010: 63ba 0fbf aa13 943e 9d60 aebe 602a 303e
00000020: 18bb aa3d c2ef 7e3c d6b9 04be d54e 163c
00000030: 0af3 ae3e ea5d d2be 0fa6 17bf 37e9 a43e
00000040: 58de 8e3e 91ca 513e 9bb8 9dbe 4059 bfbd
00000050: 52af ccbc 7594 0bbf 01a4 b63d cc87 18bd
00000060: 3e46 c43e 3079 983e 067d 8ebe 66c9 ddbe
00000070: a88e 8f3e c9b6 d83e 0b91 323e 9322 f4be
00000080: 6260 77bd a2f2 2abd 9a0f 253e c32a c1bd
00000090: 4d42 00be 0d55 eabc 8f4a c2be 42f1 a43e
000000a0: 564f 90be 0eb1 b53e e953 00bf 76ca bebe
000000b0: 1ef7 bb3e b330 d1be 2b96 fcbe 5594 cb3e
000000c0: 272e 83be 12c8 173e 92a9 883e 479f fb3c
000000d0: 96a6 093e 88df 66be c1b4 94ba 01ff ecbe
000000e0: ac9d 93be e5e3 9c3e 3302 edbd 8ca2 36be
000000f0: 0807 11bf 7ad7 ccbe 99af 0bbf 984f e93d
00000100: fd0a 93be 98ad b6be 93c5 1f3d 04f2 143e
00000110: d488 be3e acef 8a3d dff6 8ebe 6c49 cfbe
00000120: 417f 08bf a306 9ebe ca74 463e a0d4 b63e
00000130: 6aea e9be 283c 3d3e 62df 8bbd a30c e2be
00000140: d7b7 95be b79f e4be 471a dcbe 171e 6a3d
00000150: fc38 c93e 9538 7cbe 7297 4ebe 19d2 883e
00000160: 991b a4be a64a 653e 5ae1 d03e a763 223e
00000170: c53e e3be 3a51 373e 2a78 a83e 7839 493e
00000180: ba40 79bd c790 05bf 1ee3 7fbe 0773 60be
00000190: 5366 0abd 5a89 52be 7504 0cbf d954 a73d
000001a0: eaa2 3abe c6b2 383e 28c4 8dbe e071 013e
000001b0: 40f1 523e 44f1 dd3e 953c ce39 c1ae 843e
000001c0: 970b 48be 4a13 3d3e 0160 01bf 493e d5be
000001d0: 6314 623e 31f3 b9be f343 cd3e 6fec ffbe
000001e0: 16fa c0bc 1b55 a13e cd7a 58be e24a e7be
000001f0: 9285 79bc 8143 b13e 26a7 453e 6c66 f73e
00000200: 7e7a aabe 65ee e73e e329 d6be 4fe1 f8be
00000210: 8ea1 8d3e cacf a9be 8d50 363e 6b7a b1be
00000220: e9e0 893e e033 963e ca28 54be ff11 dcbe
00000230: 4396 b53e ea11 f7bd b3de 1e3e a84b b2be
00000240: 246a 03bf d431 7e3e 5171 90bd 8160 37be
00000250: c9cd 78be 5fa3 c2be 2a48 1abf 9c85 f7bc
00000260: d41e b53e 9fbb dcbe 549d ec3e 5e3e 3bbc
00000270: 3df3 48be 4cc9 acbe 11a5 d5be e7c9 903e
00000280: d872 8a3e ab1a bbbe 41d7 a5be 2d55 babe
00000290: cefc f0be 0460 e2be 2953 8b3e b3fd 743e
000002a0: c4f3 033e 70eb 6b3e 30f7 943c e3e5 c2be
000002b0: 9ba8 00be 328a ac3e d953 cdbe f28a 18be
000002c0: bc10 b2bd d8f0 cdbe b440 8abe 996e f53e
000002d0: c883 06be 389c bdbc 0e08 ba3e 717a b33e
000002e0: 97e5 f5bd 9e56 10bf 4dfe bcbc 3dd2 3dbe
000002f0: a69b 1c3e 5348 933e 844a 843e 389b bbbe
00000300: f39b ddbd de70 a1be d480 e53d 7a9d 243e
00000310: f08a d0be d536 c3be f0a9 90be 56dc bcbe
00000320: 8e82 f0be 263c 503e 1b7e 993e 980a 413e
00000330: 2d21 bb3c 7b26 5dbe 28e5 093e 2914 f8be
00000340: 9bd9 9a3e e59a 353e 5aed d7be 85ca 303e
00000350: af56 0f3e 88d0 00bf 9fd7 783d 1651 a4be
00000360: 7f68 ee3d 3a8f 06be 41f1 b6be 1df1 f4bd
00000370: eb6b 973e 84d0 a6bd 4560 21be 7b01 9a3e
00000380: fecd 08bf a1a5 9fbe 6a48 afbd 5cde 873e
00000390: 1fd0 f13e dc50 85be d3e2 7e3e e28f bcbe
000003a0: 804a 2e3e 19e2 b6be 6e06 51bd 3146 e5be
000003b0: 03c3 ecbe cfc4 80be b293 df3d 42e7 fdbd
000003c0: c60e 223d d53c 863e abd4 87be 760a 993e
000003d0: 1492 bf3e ba72 e7bd 8b99 b9be 4234 dbbe
000003e0: ec48 e93d 7fb2 0abf f3e3 b4be 8347 6bbe
000003f0: 99a4 e73d 807e b7be 5130 38be 162b b1be
-0.47551486 0.09990004 0.10923372 -0.42045793 -0.5614378 0.28921252 -0.34058085 0.17203665
0.083364666 0.015560092 -0.12961516 0.009174068 0.341698 -0.41087276 -0.5923776 0.3220918
0.2790401 0.20487429 -0.30804905 -0.09343195 -0.024985943 -0.545234 0.08918 -0.03723888
0.3833484 0.2977996 -0.2782976 -0.43317717 0.28038526 0.42326954 0.17438142 -0.47682628
-0.060394652 -0.0417353 0.16119233 -0.09431984 -0.12525292 -0.028605008 -0.3794751 0.32215315
-0.2818553 0.35486645 -0.50128037 -0.3726384 0.36711973 -0.40857467 -0.4933332 0.39761606
-0.2562115 0.14822415 0.26691872 0.030715598 0.13442454 -0.22546208 -0.0011345373 -0.46288303
-0.28831232 0.3064262 -0.11572685 -0.17835444 -0.56651354 -0.40008146 -0.54564816 0.113921344
-0.2871932 -0.35679317 0.03900678 0.14545447 0.37213767 0.06783995 -0.27922723 -0.40485704
-0.53319174 -0.30864438 0.19380489 0.35709095 -0.45686656 0.18479979 -0.06829716 -0.44150266
-0.2924182 -0.44653103 -0.42988798 0.057157602 0.39301288 -0.2463096 -0.2017496 0.26722792
-0.32052305 0.22391757 0.4079693 0.15858327 -0.44383827 0.17902079 0.32904178 0.19650829
-0.060852744 -0.5217404 -0.24988982 -0.2191888 -0.03378899 -0.20560208 -0.546943 0.0817048
-0.1822621 0.18036947 -0.27688718 0.12641096 0.20599842 0.43348134 0.0003933652 0.25914577
-0.19535671 0.1846439 -0.50537115 -0.41649082 0.2207809 -0.36318353 0.40090904 -0.49985072
-0.02355675 0.31510243 -0.21140595 -0.4517432 -0.0152296 0.34621814 0.19302043 0.4832033
-0.3329658 0.45299068 -0.41828832 -0.48609397 0.2766232 -0.33166343 0.17804165 -0.3466371
0.26929405 0.29336452 -0.20718685 -0.4298248 0.35466203 -0.12063964 0.1551464 -0.34823346
-0.5133383 0.24823695 -0.070528634 -0.17907907 -0.24297251 -0.38015267 -0.60266364 -0.030215077
0.35375082 -0.43111894 0.46213782 -0.011428444 -0.19624038 -0.33747327 -0.41727498 0.2827904
0.27040744 -0.36543784 -0.32390788 -0.3639311 -0.47067875 -0.4421388 0.27211884 0.23924904
0.12885958 0.23039031 0.018184274 -0.38066015 -0.12564318 0.33699185 -0.40103033 -0.14896753
-0.08694598 -0.40222812 -0.2700249 0.47935942 -0.13136208 -0.02314578 0.3633427 0.35054353
-0.120066814 -0.5638217 -0.023070479 -0.18537231 0.1529375 0.28766116 0.258381 -0.3664186
-0.108207606 -0.31531423 0.11206213 0.16075698 -0.40731 -0.3812777 -0.28254652 -0.36886853
-0.46974605 0.20335445 0.29979023 0.18851697 0.022842968 -0.2159671 0.13466322 -0.4845288
0.30244145 0.17734869 -0.42173272 0.17264755 0.13997911 -0.50318193 0.060752507 -0.32093114
0.11641025 -0.13140574 -0.35730937 -0.11960051 0.29574522 -0.0814524 -0.1575938 0.30079255
-0.5343932 -0.31181052 -0.08558734 0.26536834 0.47229096 -0.26038253 0.24891214 -0.36828524
0.17020607 -0.35719374 -0.051031522 -0.44780114 -0.46242532 -0.25150153 0.109168425 -0.123976246
0.03956487 0.26218286 -0.2652944 0.29890794 0.37416136 -0.11301179 -0.36249956 -0.42813307
0.11390862 -0.54178613 -0.3533016 -0.22976498 0.113106914 -0.358387 -0.17987181 -0.34603184

StatefulPartitionedCall/sequential_33/dense_67/BiasAdd/ReadVariableOp:0 f4 [9]
00000000: fcb6 b1bc 937f 9e3d 4850 8b3d b184 c63c
00000010: 696f 5cbd b791 d73b 7acb c7bb c91e 30bd
00000020: 6044 08bd
-0.021693699 0.077391766 0.06802422 0.024233194 -0.053817187 0.00657865 -0.0060972543 -0.04299811
-0.033268332

StatefulPartitionedCall/sequential_33/dense_66/MatMul/ReadVariableOp:0 f4 [56, 112]
00000000: 5764 05bd 99de 40be 71cb b5be f804 373e
00000010: 77c4 8c3c 5f60 13bd 7c21 acbd 990f 04be
00000020: 616e 1dbd 3783 523d bc15 a23d 280e 70be
00000030: 5642 b83e f29f c3bd 5d1a 343c 67ea 313e
00000040: 0455 8d3d e1d2 853d f970 eebe efa6 3a3e
00000050: 65db d03e af16 bd3c aba3 9cbe 5926 1d3e
00000060: cafd 95be d762 2d3e a7e3 f4be 61f0 ec3d
00000070: d79d 70be b77d c63d 49c4 903e 724b 273c
00000080: fe65 9e3e ae78 803e b2a6 d23b 29e6 2f3e
00000090: 1243 4ebe 65e8 ec3c bf47 86bd ea18 b43e
000000a0: ba49 9cbc 44cc d63d 57a4 83bd 2a9f 613c
000000b0: cea8 99be c8d3 60be c007 9e3e 053a c3bd
000000c0: 0cc9 de3d a143 e8be 3633 e0bb e2e0 673e
000000d0: 7a71 80be 9d4e 83be c2bf d83d e8c5 2dbe
000000e0: 1008 2ebe e6a7 67be 0e6b 7e3e edfa ab3d
000000f0: 584d a53d 09b2 a8be e1c1 c9bd 9047 a93d
00000100: d46c 36bd 9ba5 1ebe e370 9bbe 31fb 05be
00000110: c794 68be 407b 4cbe fefe 8fbe c125 cbbd
00000120: 3a0f 4b3e 668f 5d3e 194e 533d 7611 e33d
00000130: c795 6fbe fa23 9ebb 778d 193d b682 86bd
00000140: 9ccb 4ebe 510e 7ebd 6d39 56be 4ace 68be
00000150: 529f cabd 6190 22bc 8b61 073e e984 893d
00000160: 480f bc3e cfdf 89be c697 06be 9778 973c
00000170: 2616 42be 2cd9 523d b54a 17be 801a cebe
00000180: 9c71 b1be 24b2 4cbe 0a86 78bd 6150 6cbe
00000190: 84ef ef3d 384c 853d 7825 d13d 4c12 6e3d
000001a0: 896b 8d3d 0a08 113e 7529 c33e 08c7 d53d
000001b0: 89e7 88be 5fab c73e 69df afbd ef35 f0bc
000001c0: 97eb bd3d dc59 27be b4e6 993e 99b4 77be
000001d0: 7405 d53c bdb9 5b3e 500e a0be 9b68 9b3d
000001e0: 4a3f f5bd 913d b0be f2ee 3c3e c0e7 8e3e
000001f0: 6e01 1dbd 65c6 8a3e e1b2 c3be 2f6e 063d
00000200: ef50 cf3d 7f36 853e 0f15 8c3e 3dba 073d
00000210: 3532 35be ff6f 003d 0acd 4c3e 5606 a23e
00000220: 9fda 983e 2a64 afbe 86bd 813e d1c8 4a3e
00000230: c429 733e 6cf0 1bbe 21c7 2fbe 9c37 86bd
00000240: 4d18 873e a462 87bd 430e b93e 0aa0 8bbe
00000250: 5757 df3d c0bb 0ebe 46c0 823e cf9f 323e
00000260: e213 933d 885f b6be 5983 1a3e b1dd 7b3e
00000270: 737d 643e 8758 adbc 5b72 20be bb70 603d
00000280: 4fd7 7c3d 3ea4 bebd b5a5 d23d aabb 73be
00000290: 90ef 603e 7452 e43b 88d0 c93c 213c efbc
000002a0: 004a b1be bf8e 23bd 1583 503e b940 a2be
000002b0: be0e febc 5046 d8bd 7c39 0c3e e9b9 a6be
000002c0: 3eff 953d ee73 c8bd e68c 983e f887 87be
000002d0: 2b48 9e3d cd58 913e ab5e 403e 021e 91bd
000002e0: c5ee 8a3d cd06 ae3e 6258 a4bd e4e6 a6be
000002f0: 3969 24be 887e 803e bf92 ee3c 29af 82bd
00000300: 153f 0cbc 4ae7 bc3e a704 3b3e 59ec 97bc
00000310: 4ec3 d43d 93ba f13d b972 6c3d fc8b eabe
00000320: 2318 81bd 53f4 55be bc7b 03bd 099b 263e
00000330: a20c cb3e 5317 36be f872 6f3d c1cb d3bd
00000340: ddd7 ad3e 035e 373d 58e3 8ebd 6803 34bd
00000350: 3691 863d 1527 803e d1ac d93d 68e4 02be
00000360: 1608 86bd 42e2 28be 1ef3 423d 422a cfbd
00000370: cc98 833e 18d1 743d 0018 72b9 bb3b 7c3d
00000380: f6e3 6a3d 2ff4 e23d bd71 9ebd 1a2f 4e3e
00000390: c8a1 4abd f3ed 5b3d b07f eb3d 5914 84be
000003a0: f0f4 d33b 1b94 d4bc 9f9c 85be 05ca 37be
000003b0: ada3 373e 6bd8 2ebe 6a5c 283d ac84 223e
000003c0: c429 ed3c b093 0abd 6ec8 a5be d54a c73c
000003d0: f103 91bd ac76 1fbd cdea d8bc 3371 d5bd
000003e0: c46a d0bd 3719 a6bb 0d8c 00bd b64a afbd
000003f0: e042 9cbe 5ce4 c4bd 5a59 bdbd d165 0ebe
-0.032566395 -0.18834914 -0.35506776 0.17872989 0.017183525 -0.03598058 -0.08404824 -0.12896575
-0.038435344 0.051394667 0.07914302 -0.234429 0.3598811 -0.095519915 0.010992614 0.17374574
0.06900981 0.065343626 -0.46570566 0.18227743 0.40792385 0.023082105 -0.3059362 0.1534666
-0.29295188 0.16932236 -0.47829935 0.11569286 -0.23497711 0.09691947 0.28274754 0.010210859
0.3093719 0.2509207 0.006428563 0.17177643 -0.20142773 0.028919408 -0.06556653 0.35175258
-0.019078124 0.10488179 -0.0642783 0.013770858 -0.300116 -0.21955788 0.30865288 -0.09532551
0.108781904 -0.45364097 -0.0068420423 0.2264438 -0.25086576 -0.25645915 0.1058345 -0.16970026
-0.16995263 -0.22622642 0.24845526 0.0839747 0.08071393 -0.3294833 -0.098514326 0.082656026
-0.04453738 -0.15492861 -0.30359563 -0.13084103 -0.22713004 -0.19968891 -0.2812423 -0.0991931
0.19830027 0.21636733 0.05158815 0.11087315 -0.2339698 -0.004826066 0.037488427 -0.065679
-0.20194858 -0.062025372 -0.20920344 -0.22734943 -0.09893669 -0.009922118 0.13220803 0.06714804
0.3673041 -0.26928565 -0.13143834 0.018490119 -0.18953761 0.051476642 -0.14774592 -0.40254593
-0.3465699 -0.1998983 -0.060674705 -0.23077537 0.11715606 0.06508678 0.10212225 0.058122918
0.06905276 0.14163223 0.38117567 0.10438353 -0.26739147 0.38997933 -0.08587534 -0.029322593
0.09273451 -0.16342872 0.30058825 -0.24189986 0.026003577 0.21457572 -0.3126092 0.07588311
-0.11974962 -0.3442197 0.18450525 0.27911186 -0.03833144 0.27104488 -0.3822241 0.032819923
0.10122859 0.2601814 0.27359816 0.033136595 -0.17694934 0.031356808 0.20000091 0.3164546
0.29854295 -0.34256107 0.25339907 0.19803168 0.23746401 -0.15228432 -0.17165805 -0.065535754
0.26385728 -0.06610611 0.36143693 -0.27270538 0.10905331 -0.13938808 0.25537318 0.17443775
0.07181527 -0.3561976 0.15089168 0.24596287 0.2231348 -0.021160377 -0.15668623 0.05479501
0.06172877 -0.093086705 0.10285512 -0.23802057 0.21966386 0.006967837 0.024635568 -0.029203476
-0.3462677 -0.039931055 0.20362504 -0.31690004 -0.031012889 -0.10560286 0.13693804 -0.32563713
0.07324074 -0.09787737 0.29794997 -0.26470923 0.07728609 0.28388062 0.18786113 -0.07085802
0.06783823 0.33989564 -0.0802467 -0.3259803 -0.16055764 0.25096536 0.029122708 -0.063810654
-0.008559962 0.3689521 0.18263493 -0.018545317 0.10388814 0.11803164 0.057726596 -0.45809925
-0.06303432 -0.20893984 -0.032100424 0.16270079 0.39658076 -0.17782335 0.058459252 -0.10341597
0.33953753 0.04476739 -0.06976956 -0.04394856 0.065706655 0.25029817 0.10628665 -0.12782443
-0.06544511 -0.1649256 0.047595136 -0.10115482 0.25702512 0.05976972 -0.00023087859 0.0615804
0.057346307 0.110817306 -0.077365376 0.20135155 -0.049470693 0.053693723 0.11498964 -0.25796774
0.006468408 -0.025949528 -0.26096055 -0.17948158 0.17933531 -0.17074744 0.041103758 0.15870923
0.02895058 -0.033832252 -0.32379478 0.024327675 -0.0708083 -0.038931534 -0.02647915 -0.10421982
-0.10176614 -0.005068924 -0.031383563 -0.08559172 -0.30519772 -0.096138686 -0.09245558 -0.13906027

StatefulPartitionedCall/sequential_33/dense_66/BiasAdd/ReadVariableOp:0 f4 [112]
00000000: 391f 063e 391b 813d 4c8a 3b3d 29ee ea3d
00000010: 66ca 3e3d 9784 9c3d a008 e63d 3c03 3e3d
00000020: bc20 a93d a810 7e3d 720a 093e 6302 b73c
00000030: 96cf 0d3e 81b7 da3d 89b4 bd3d 9bf4 cc3d
00000040: 9ac0 153e 72da c93d d348 6b3d 27de b93d
00000050: 5de3 d33d 3c65 b33d ef09 013d 8eac ac3d
00000060: 31ca 873c 0253 c93d 59f9 8dbc 4a4b a53d
00000070: b0e3 8a3d 01b8 f23c 0471 793d e6aa bebc
00000080: a46c 033e ec00 c13d 1e09 43bc a51b a33d
00000090: 63d6 823d 775a e23d 1891 d23d 67b3 933d
000000a0: 9b12 04bc d94d d63d 8a89 2d3d 8a4b 173e
000000b0: 15c1 93bc 4279 cd3d 6608 c63d e274 923d
000000c0: 6b5a bb3d a426 ce3d 0025 a63d d724 f53d
000000d0: 9948 a83d d241 b93d 0000 0000 fef5 223d
000000e0: be7c e53d c674 ef3d fbcc 7c3d 6445 ce3d
000000f0: cc76 3f3d 8903 dc3d ed14 af3d 5b6b f43d
00000100: 026a fb3d 0000 0000 3739 dc3d 4f7e 9f3d
00000110: c86f ec3d c6de c33d ec55 f33d 533c 103c
00000120: 022e a33d 3505 8f3d 5c31 fc3c 847a 823d
00000130: 64ba 183e ec84 363d c788 e13d 2542 ca3d
00000140: f16a 603d db9a b63d b561 db3a 9d7b ca3d
00000150: 8eb8 fa3d a614 233d a4eb b13d bbc4 cb3d
00000160: dc37 893d fb57 3d3d 9bc2 66bc 9b19 aa3c
00000170: 470a c43d fc7f e73d 2e4f 243d 9415 133d
00000180: 4782 a03d 934f 743d a37f ec3d 3679 653d
00000190: 9eb6 683d 2e07 133d bf59 a13d 0000 0000
000001a0: 1f69 ce3d 65f6 663d ddca e23d 0667 9d3d
000001b0: 091d 1e3c 2ae5 b93d 0000 0000 d726 4fbb
0.13097848 0.063040204 0.045786187 0.11471207 0.04657974 0.07642477 0.11232114 0.046389803
0.08258197 0.062027603 0.13382891 0.022340005 0.13848719 0.10679532 0.0926295 0.10007592
0.14624253 0.09856118 0.057442497 0.09075575 0.103461005 0.08759543 0.031503614 0.0843135
0.016575905 0.098302856 -0.017330812 0.08071001 0.06781709 0.029628756 0.060898796 -0.02327485
0.12834412 0.09424004 -0.011904029 0.07964257 0.06388547 0.11052411 0.10281581 0.07211953
-0.0080610765 0.10464067 0.042367496 0.1477491 -0.018036405 0.10032894 0.096695706 0.071512
0.09148105 0.10065964 0.08112526 0.11969917 0.08216972 0.09045757 0.0 0.039785378
0.11205433 0.11692195 0.061718922 0.10071829 0.046744153 0.10742862 0.08548913 0.11934539
0.12276079 0.0 0.107531 0.07787763 0.11544758 0.09563975 0.11881623 0.008803445
0.0796776 0.06983415 0.030785255 0.06371024 0.14914852 0.044560358 0.11012416 0.09875897
0.054789487 0.08916255 0.0016737493 0.098868586 0.12242232 0.039814614 0.08687523 0.09949633
0.067001075 0.046226483 -0.0140844835 0.020764163 0.09572273 0.11303708 0.040114574 0.03590925
0.078373484 0.0596462 0.11547782 0.0560238 0.056814782 0.03589552 0.07878446 0.0
0.10078644 0.056387324 0.11073849 0.07685666 0.009650477 0.09076913 0.0 -0.0031608844
